Genie_Non_local_Jet_Classification_Tanmay_Bakshi/scnn/bounds_and_laps/trained_model.pth (torch, 514004 bytes, 34 tensors)

C0_1.theta f4 [16, 4, 2]
00000000: a052 f620 be51 f6a0 2e10 e520 b710 e5a0
00000010: ed32 ee20 cc31 eea0 ff0e d120 d60d d1a0
00000020: 36ba da12 1b73 d892 0054 1d93 47ce 2413
00000030: 0d7d b012 0666 a892 4105 3792 4616 4f12
00000040: c734 859d 5b4c 861d 20ab ae9d 2f4e 871d
00000050: 952c c69d b24b 8a1d bdf5 9a9d 479d 4e1d
00000060: cbb6 a03a 54ba 9aba 511d 9c3a 65c5 a8ba
00000070: c91f ac3a c1cd a7ba caad e53a 069b fcba
00000080: fee2 4a14 1163 a294 5989 db15 ca8d e695
00000090: 6a13 8815 d32b 8395 9362 aa15 e419 b195
000000a0: c076 4d9e 64c9 4d1e dd4e 1c9e 86fa 231e
000000b0: 9b79 069e f3ba 0f1e e1ba 149e 040f 1e1e
000000c0: f90e 559f 075d 551f 0a23 279f 0f1c 251f
000000d0: 2036 569f 45bf 531f dd77 389f 090b 361f
000000e0: 00f0 d113 b898 bf98 b464 8798 5c33 b598
000000f0: 0cfc 6519 ac50 fe99 58b8 0a19 4aed 7499
00000100: 1653 dc3a 752a e3ba 1d81 ee3a 8503 ecba
00000110: e8de e13a 29fc e0ba 7943 123b 4913 15bb
00000120: 3448 e89c 3a8e cb1c 38c6 9e9c be4e a41c
00000130: 2f2a a09c b77d ab1c 7e4d 8c9c b20d a01c
00000140: a737 1d99 0937 1d19 b489 3299 de83 3219
00000150: 0674 2f99 1175 2f19 8824 2399 041a 2319
00000160: dd74 f53a 2651 f5ba c115 f73a c44c f1ba
00000170: 1c34 f33a 5ccd f9ba af3f 123b e2ff 1bbb
00000180: 51b5 0b9e b2b7 0b1e 4f61 0b9e a763 0b1e
00000190: 0faa 0e9e d4aa 0e1e 208b ff9d 3c88 ff1d
000001a0: 10a5 799c 0860 841d 2c8d 879d 540a 161e
000001b0: 76df cd9d e0d3 e61d 0087 299c af33 8e1d
000001c0: 16e2 139f 435a 131f 2dd3 d39e 268c d31e
000001d0: 03e0 039f 7852 031f ca7f eb9e ccd5 ea1e
000001e0: 6a71 5c9e 0c92 5c1e 8230 349e 1479 341e
000001f0: 06dc 519e 9711 521e 09ce 3d9e 0c62 3e1e
4.1728698e-19 -4.1728113e-19 3.8804816e-19 -3.880517e-19 4.0352468e-19 -4.035172e-19 3.54159e-19 -3.5415133e-19
1.3803639e-27 -1.3659892e-27 -1.9857601e-27 2.0801413e-27 1.1137989e-27 -1.0627441e-27 -5.7751094e-28 6.5345137e-28
-3.5259377e-21 3.5548454e-21 -4.6234356e-21 3.5815042e-21 -5.245626e-21 3.6606563e-21 -4.101755e-21 2.7345183e-21
0.0012261508 -0.0011804798 0.0011910592 -0.0012876211 0.0013132031 -0.0012802408 0.0017523107 -0.0019272275
1.024316e-26 -1.6396895e-26 8.867009e-26 -9.3119964e-26 5.496059e-26 -5.297962e-26 6.8817976e-26 -7.153058e-26
-1.08771666e-20 1.0894256e-20 -8.27488e-21 8.680955e-21 -7.119048e-21 7.609017e-21 -7.8737004e-21 8.3675555e-21
-4.511689e-20 4.5181455e-20 -3.539261e-20 3.496332e-20 -4.5361034e-20 4.4839202e-20 -3.9062664e-20 3.8549127e-20
5.2995676e-27 -4.952655e-24 -3.4998366e-24 -4.6839263e-24 1.1889923e-23 -2.6295568e-23 7.171661e-24 -1.26624245e-23
0.001680943 -0.0017331379 0.0018196438 -0.001800642 0.0017232569 -0.0017164993 0.002231805 -0.002274709
-1.5371136e-21 1.3470178e-21 -1.0506801e-21 1.0872964e-21 -1.0598816e-21 1.1348327e-21 -9.284454e-22 1.0591452e-21
-8.127949e-24 8.127824e-24 -9.230193e-24 9.229015e-24 -9.070719e-24 9.070929e-24 -8.43428e-24 8.432156e-24
0.0018726845 -0.0018716201 0.0018851088 -0.0018409719 0.0018554959 -0.0019058394 0.002231579 -0.002380364
-7.396094e-21 7.396586e-21 -7.378722e-21 7.379206e-21 -7.552585e-21 7.552744e-21 -6.764179e-21 6.76388e-21
-8.2600527e-22 3.5039403e-21 -3.588017e-21 7.94307e-21 -5.44941e-21 6.1099567e-21 -5.6091893e-22 3.7640527e-21
-3.1315475e-20 3.1203124e-20 -2.2427834e-20 2.2398458e-20 -2.7925627e-20 2.7808546e-20 -2.4934445e-20 2.4864138e-20
-1.16701565e-20 1.1676905e-20 -9.539152e-21 9.554159e-21 -1.1109868e-20 1.1120945e-20 -1.0048184e-20 1.0078792e-20

C0_1.bias f4 [1, 16, 1]
00000000: 8acc ec20 35ab 7014 d4fe 809d 156d 9f3b
00000010: 99ab 5296 156f 0e9d 5bec 859f c3d4 8c9b
00000020: f06a b83b 62ce 3f9d 25ba e117 8cbb c83b
00000030: ca39 289e 7009 329f f888 019f 4c66 559e
4.0115308e-19 1.2150668e-26 -3.4144804e-21 0.0048652985 -1.7017812e-25 -1.8850972e-21 -5.671871e-20 -2.329855e-22
0.0056279823 -2.5385337e-21 1.4587274e-24 0.006125873 -8.9057964e-21 -3.7700773e-20 -2.743011e-20 -1.1297281e-20

C0_2.theta f4 [32, 16, 2]
00000000: c415 f306 f32a f386 adff 0200 adb2 0000
00000010: 110d 7780 e076 3b01 4eb5 8820 6499 88a0
00000020: 981a 1200 0f57 1480 06a4 2284 4eba 2204
00000030: 8ed8 7636 1418 1e2b 2668 0980 65fb 1f80
00000040: cec5 9620 f4a1 96a0 4714 a682 9107 a702
00000050: 86c3 3f00 e421 3780 e0e6 9b20 02e3 9ba0
00000060: 807e 4381 2c2e 0401 93a0 8c83 085c 8b03
00000070: 0f23 e281 c1e4 e001 6106 1105 0000 2102
00000080: d671 7088 3256 7008 85f4 0000 e8b0 0200
00000090: 6435 8702 66cf 8882 6ba2 06a4 6ea2 0624
000000a0: 8c84 1580 7595 1f00 72a2 dd04 3add dd84
000000b0: c240 feaf 7061 e5ac edb6 dd00 b17c d480
000000c0: 96cd 28a4 8dcd 2824 eca0 e284 78b4 e204
000000d0: d462 1100 33df 0880 c797 34a4 de97 3424
000000e0: 1582 9f02 d187 9882 4b24 b606 5b25 b686
000000f0: c6ed 0704 7fcb 0784 66f7 1205 7917 2685
00000100: 5ae9 0d82 0682 0e02 4d52 0780 a2ea 0180
00000110: 386b ec80 b060 b800 64dc dc21 04c0 cea1
00000120: 4b32 0e80 17b5 0f00 067f c381 d0bb c501
00000130: eb23 4235 9f98 1935 c2f0 0200 2267 0000
00000140: d8d9 1d22 07cc 15a2 bc0a 7a81 188a 7f01
00000150: b1f2 4e80 1a41 4c00 d64a 2f22 72f7 26a2
00000160: 4223 0f00 9283 0900 0f66 4283 0e63 4203
00000170: 614b 0600 ef4e 0500 9a0b 7a86 e0cb 7906
00000180: 7f5e f784 8465 f704 eebc 3f00 6441 1880
00000190: d873 0d00 ff77 1c80 7337 4eb9 2f36 5a39
000001a0: 263a 4a81 66ab a100 7e1e 8404 6015 8484
000001b0: a6fe 8b81 18a0 6401 3602 0000 1f4e 3280
000001c0: e6af 76b9 86d5 5839 87bf 2104 a353 2284
000001d0: 27b9 6200 a0c8 6980 2967 60b9 a4d4 7439
000001e0: 324b 1c00 edf2 2d80 fcd4 5205 24cf 5285
000001f0: 4572 d100 88da 9280 a2ae 2984 8a64 2f04
00000200: 9061 aa8c 5556 aa0c 6062 0882 213c 0d02
00000210: 5872 4605 5ef1 4585 751d fd3a e5f7 04bb
00000220: df8c fc02 047d d682 fbd5 5e8a 4e81 5f0a
00000230: 0403 8387 0019 7f07 0dbc 8384 b47f 8304
00000240: d391 113b 4099 0fbb d41b 4a88 7801 4408
00000250: 98a5 d185 cfea d105 3f8a 133b d84a 12bb
00000260: 679b 3606 a079 3686 e2c7 3d8a dcd0 3d0a
00000270: 75e5 1b07 b7e2 1b87 0586 1a8a 6e27 1a0a
00000280: 0c40 9887 e249 9807 06a9 0000 190f 0000
00000290: 8e4d 6001 0dba 5e81 71e9 f239 be9f f2b9
000002a0: 8223 0200 4cbd 0180 183d c105 b93d c185
000002b0: b409 3884 f2b3 3704 e189 4200 f01d 4280
000002c0: ed5d 323a 2041 32ba 126a 9503 452b 9583
000002d0: aa22 a500 e8eb af80 42ca 3c3a cfc5 3cba
000002e0: 90ea 8201 19f1 8181 d29a 8005 397f 8085
000002f0: 8846 c701 7b09 c981 02d4 1f05 2de5 1f85
00000300: c404 bd86 adde bc06 0728 0300 45e8 0380
00000310: d022 3700 405f 3380 f16c 3839 eca1 38b9
00000320: 6f8e 0380 a045 0180 d3f2 7b04 fe77 7b84
00000330: 24ce 7503 e0f5 7483 9c7a 0600 7a3a 0180
00000340: bc72 9b39 0131 9ab9 c83a a502 348b a482
00000350: d83f 3600 a7a4 3680 11f8 a739 fc19 aab9
00000360: decf c800 07c9 ca80 7935 2105 2b2d 2185
00000370: ee53 f100 a4d5 fd80 b2c6 8a84 8cbc 8a04
00000380: ca8b bb87 108c bb07 c34b 0380 6d98 0200
00000390: 927e 8e01 4c44 8f81 c39f d839 e4a5 d8b9
000003a0: caa2 0300 dc9d 0300 fba0 f405 dca4 f485
000003b0: 07f8 6a83 0626 6c03 ca49 5e00 7cee 5480
000003c0: baa1 293a 704d 29ba 515e 9d82 fbcf 9b02
000003d0: 9aca 7000 60f7 7d80 db14 333a 2b18 33ba
000003e0: 3222 6d01 6b6f 6b81 8085 6903 b0a8 6983
000003f0: aefe f701 30a1 f781 0013 dc05 4513 dc85
9.143842e-35 -9.146955e-35 2.7539e-40 6.4097e-41 -1.0933111e-38 3.4431764e-38 2.3159274e-19 -2.3140802e-19
1.662579e-39 -1.86794e-39 -1.9118324e-36 1.9128555e-36 3.6782908e-06 5.616629e-13 -8.63881e-40 -2.937084e-39
2.5541885e-19 -2.551816e-19 -2.4403146e-37 2.4542787e-37 5.855777e-39 -5.06311e-39 2.6410802e-19 -2.6408243e-19
-3.5906603e-38 2.4277698e-38 -8.2653265e-37 8.190815e-37 -8.3069595e-38 8.261285e-38 6.819039e-36 1.1828412e-37
-7.2356186e-34 7.2323695e-34 8.7717e-41 2.47133e-40 1.9867112e-37 -2.0102445e-37 -2.919419e-17 2.91942e-17
-1.976094e-39 2.900515e-39 5.2106033e-36 -5.2160015e-36 -4.6248344e-10 -6.519389e-12 2.0361266e-38 -1.9513856e-38
-3.660333e-17 3.66033e-17 -5.3280128e-36 5.329808e-36 1.596656e-39 -8.14753e-40 -3.915984e-17 3.9159915e-17
2.3437614e-37 -2.2412347e-37 6.851412e-35 -6.851568e-35 1.5978354e-36 -1.5962615e-36 6.910327e-36 -7.809594e-36
-1.0426013e-37 1.0469827e-37 -6.72372e-40 -1.76006e-40 -2.171164e-38 1.6932416e-38 1.4966117e-18 -1.4009929e-18
-1.303739e-39 1.442495e-39 -7.1813957e-38 7.263587e-38 7.23229e-07 5.7219034e-07 2.70039e-40 3.6997e-41
2.1392793e-18 -2.0301277e-18 -4.592545e-38 4.693518e-38 -7.25023e-39 7.002852e-39 2.375654e-18 -2.2628192e-18
1.39018e-39 8.73718e-40 -5.7128634e-37 5.7125185e-37 5.78054e-40 4.87494e-40 -4.7028298e-35 4.698148e-35
-5.8156202e-36 5.816265e-36 5.853411e-39 -2.22751e-39 1.235418e-39 -2.61444e-39 -0.00019666347 0.00020810285
-3.714326e-38 1.4847001e-38 3.1061054e-36 -3.105268e-36 -5.142594e-38 4.1991848e-38 7.93e-43 -4.6198e-39
-0.00023525915 0.00020678909 1.9013404e-36 -1.9081413e-36 9.066299e-39 -9.714698e-39 -0.00021400735 0.00023348868
2.598369e-39 -4.219743e-39 9.9132716e-36 -9.912198e-36 1.9234611e-38 -1.3486377e-38 -1.9946042e-36 2.0617316e-36
-2.6251366e-31 2.6244606e-31 -1.0019934e-37 1.03763e-37 9.330917e-36 -9.3072276e-36 0.0019311147 -0.0020289358
3.7108928e-37 -3.151623e-37 -1.07291564e-32 1.0761379e-32 -1.9712462e-34 1.9191415e-34 -3.097065e-36 3.091523e-36
0.0022212162 -0.0021911412 -6.0819876e-34 5.898333e-34 -1.9715095e-35 1.974052e-35 0.002251282 -0.0022322442
3.4344567e-35 -3.431975e-35 -9.137613e-33 9.139301e-33 1.1728335e-34 -1.172753e-34 -7.4400366e-33 7.422246e-33
-2.2908061e-34 2.2913843e-34 6.0634e-41 5.416e-42 4.1197945e-38 -4.0908445e-38 0.00046331764 -0.00046276854
1.96409e-40 -1.59742e-40 1.8172075e-35 -1.8172306e-35 -2.1633552e-36 2.1594173e-36 6.110604e-39 -6.071882e-39
0.0006804157 -0.00067998655 8.7817855e-37 -8.767367e-37 1.5165292e-38 -1.6155839e-38 0.00072017696 -0.00072011066
4.809104e-38 -4.7733074e-38 1.2093934e-35 -1.2083796e-35 7.320226e-38 -7.384934e-38 7.515084e-36 -7.518237e-36
-7.11009e-35 7.104493e-35 2.89866e-40 -3.58829e-40 5.06344e-39 -4.71778e-39 0.00017588191 -0.00017607928
-3.26602e-40 -1.16812e-40 2.9616408e-36 -2.9560006e-36 7.2235667e-37 -7.1987406e-37 5.94997e-40 -1.12813e-40
0.00029649388 -0.0002940968 2.427831e-37 -2.4177533e-37 4.98202e-39 -5.018183e-39 0.00032037546 -0.00032444287
1.8441668e-38 -1.8622885e-38 7.580005e-36 -7.57848e-36 2.2162463e-38 -2.331102e-38 -3.2626117e-36 3.2616797e-36
-2.8218793e-34 2.8218954e-34 -3.02685e-40 2.38351e-40 5.234418e-38 -5.2627905e-38 0.00041317762 -0.0004132233
3.33904e-40 3.32136e-40 2.3004785e-35 -2.300621e-35 -6.905114e-37 6.9397815e-37 8.659007e-39 -7.799734e-39
0.00064709375 -0.00064583775 -2.3123212e-37 2.2894578e-37 1.0358255e-38 -1.1568178e-38 0.0006831416 -0.00068319094
4.355456e-38 -4.3242622e-38 6.8625796e-37 -6.866619e-37 9.109892e-38 -9.0964763e-38 2.069568e-35 -2.0695779e-35

C0_2.bias f4 [1, 32, 1]
00000000: 84c0 9323 2598 a4a5 d188 10a5 d917 9dbb
00000010: cef6 7c3c 6a14 4bbb 1a84 06bc 8f96 b4ba
00000020: 919c 35bb 4f50 3dbc 3c15 4c27 47ac d83c
00000030: 3a48 0cbc 60a1 0b27 e9f5 bfa7 dd60 4fbb
00000040: 491f a2a2 1ec4 eba6 17ec a73c c9c5 03bc
00000050: 0afd 8dbb 8f45 1e25 44c5 5b27 f25b 1ba3
00000060: 7868 0abb b293 b6bb 52f5 27bb 702b cd3b
00000070: 776b 6cbb 3eac fcba fd1b 95bb f5f5 31bb
1.6019305e-17 -2.8552562e-16 -1.2536364e-16 -0.0047941026 0.015439702 -0.003098751 -0.008210206 -0.001377778
-0.002771173 -0.011554792 2.8322198e-15 0.026449336 -0.008562142 1.9377607e-15 -5.3279766e-15 -0.0031643428
-4.3943312e-18 -1.6359558e-15 0.020498319 -0.008042761 -0.004333143 1.3727883e-16 3.0499293e-15 -8.422037e-18
-0.0021119397 -0.005571806 -0.00256284 0.0062612817 -0.0036074796 -0.0019277406 -0.0045504556 -0.0027154658

C0_3.theta f4 [64, 32, 2]
00000000: d003 8283 bdb0 8203 0ab1 3503 9a00 3583
00000010: 90f9 3c81 68ac 4101 d2b2 6f97 1ab4 6f17
00000020: 6d3c 7a1a b939 7a9a 2410 f095 5a0a f015
00000030: b9c2 ef96 b3c0 ef16 471f 4195 9b21 4115
00000040: 73a4 d595 aca9 d515 9fa7 9097 82a7 9017
00000050: 5da3 5f88 1da3 5f08 c873 351b 0e74 359b
00000060: a5b7 0297 b9b7 0217 a441 0907 c13f 0987
00000070: cb68 7607 9a6c 7787 2195 fa95 e693 fa15
00000080: d800 1e00 4992 1f80 687e e405 acad bf85
00000090: 6485 9e1a 4b85 9e9a d859 e696 a85b e616
000000a0: 0e57 3696 7a54 3616 5286 a684 be84 a604
000000b0: c49a 31b9 ecfc cb37 512f 3f80 d05e 3100
000000c0: 07b0 9d95 62b0 9d15 5292 7b96 9393 7b16
000000d0: 5c65 bd95 da63 bd15 6f9b 9319 4d9c 9399
000000e0: 7d72 0e96 6572 0e16 46b2 8b95 1bb1 8b15
000000f0: 64f1 3b96 02f2 3b16 8b94 d195 329a d115
00000100: 32d2 4fb5 15bf 2129 9270 bd2b b49a fe2d
00000110: 122c 60ac 3fd1 1fb5 657c 8fae f0b4 852f
00000120: 9663 8fac 9c4f c9ac b5bb b337 1638 ddb6
00000130: a887 ac2e 1176 a7ad f899 4d26 c460 f52e
00000140: 36f3 2eb8 4598 142a 68fe 692d 6f7d 8733
00000150: 991f 8225 6a50 0e30 4a4f cd2d 205a cbad
00000160: d50d 0aac 9862 b4ae 6d38 8634 f81b 2130
00000170: d00f 99aa be0b 17b9 e64a c937 56c9 dab6
00000180: 8cb6 3c2b 33c8 95b5 944e 8f24 05e6 7b2c
00000190: ae04 09ad bb8f 9ead 965c 18b1 b872 9aac
000001a0: 98a9 73a9 c4d1 e3a8 60ec 38b3 c5b6 9237
000001b0: 2440 0c2d 8c30 0e28 8ba1 1db2 e8f4 bfaf
000001c0: 002d fdb8 e9d0 baad 6827 21a9 784a 9133
000001d0: 703f b637 ea69 eea8 3ce6 b8ac 4285 d3ac
000001e0: 889d 2736 67b0 b3b5 c844 55a6 2852 8233
000001f0: f827 ccb4 86df 8b34 5ece 67b7 e9af 1d37
00000200: 699e 9283 e422 9403 193f 0f03 ae7e 0e83
00000210: 94a2 0d82 72ee 0c02 8c87 3297 8386 3217
00000220: 6c7c 1c1a a77c 1c9a d409 ba95 180a ba15
00000230: d05b bc96 135d bc16 6054 1495 ef53 1415
00000240: 1b83 a595 4983 a515 e62c 6097 e22b 6017
00000250: d075 1988 2599 1808 fd18 e41a 3719 e49a
00000260: 6458 cd96 3557 cd16 a3c6 bc06 2beb bc86
00000270: 2054 3a07 968f 3b87 8289 c295 318b c215
00000280: bf59 4000 2fa9 3f80 67df a086 0333 a406
00000290: b7e0 461a c5e0 469a 04f9 b496 78fc b416
000002a0: d020 0e96 af20 0e16 4009 8084 f3b8 8004
000002b0: 9312 b3b5 04ab 06b1 865e 2780 8c4b 1600
000002c0: 27a4 7395 14a3 7315 75cb 4496 ebcb 4416
000002d0: 4e2f 9295 fe2e 9215 af98 5819 8695 5899
000002e0: 1c24 dd95 ac23 dd15 ab35 5795 e735 5715
000002f0: e057 1296 4e57 1216 2265 a295 a764 a215
00000300: fb91 f008 c9a1 e488 94d8 a007 e0b2 5888
00000310: d0b7 b888 09ae be08 a0c2 469a b6c1 461a
00000320: 9fba 47a4 b4fb 5524 b1b2 259b 2ec2 241b
00000330: 508f 4f9b 4193 4f1b 725e 8b9b cce4 9e1b
00000340: 4ba8 2c9b 6219 271b bef7 559b ecf9 551b
00000350: 5f66 290e 20ba 688d c72f 82a7 ab95 9a27
00000360: 1b9b 539b e19b 531b 41df df0c 19a0 e38c
00000370: 00e1 ac08 0046 2288 0b2d 1b9b 51d6 191b
00000380: df87 8a86 fc1e 3386 0050 7507 c8a9 cf8a
00000390: ccbe 28a4 b0c3 0524 445a 4d9b 1e5f 4d1b
000003a0: ad98 159b 7cb6 181b 72c2 670a 1c99 688a
000003b0: b0d6 b5a5 5496 762f ffcd b506 374d bc86
000003c0: ec2c 309b 07c0 2c1b 6487 289b 0708 281b
000003d0: 8a5d 6f9b ee52 4b1b 3947 561e 7b38 379e
000003e0: c0c7 2a9b aea8 281b 6382 7f9b 1ed8 771b
000003f0: 4076 249b b907 241b 1402 2c9b 4416 2b1b
-7.641589e-37 7.68129e-37 5.339435e-37 -5.319181e-37 -3.47092e-38 3.5572197e-38 -7.745077e-25 7.7452385e-25
5.17476e-23 -5.1745416e-23 -9.6960693e-26 9.695156e-26 -3.873542e-25 3.8734143e-25 -3.9000713e-26 3.900255e-26
-8.628947e-26 8.629771e-26 -9.348095e-25 9.348067e-25 -6.7298654e-34 6.729836e-34 1.500938e-22 -1.5009468e-22
-4.2237057e-25 4.2237156e-25 1.0326025e-34 -1.032547e-34 1.8537779e-34 -1.861413e-34 -1.0120948e-25 1.0120754e-25
2.755368e-39 -2.899378e-39 2.1487451e-35 -1.802535e-35 6.556277e-23 -6.5562615e-23 -3.7215203e-25 3.7216347e-25
-1.4729313e-25 1.4728499e-25 -3.9149766e-36 3.9148317e-36 -0.0001693769 2.4317262e-05 -5.80261e-39 4.533952e-39
-6.368952e-26 6.369008e-26 -2.0321789e-25 2.0322185e-25 -7.649641e-26 7.649403e-26 1.5262223e-23 -1.5262573e-23
-1.1506795e-25 1.1506765e-25 -5.642292e-26 5.6421076e-26 -1.5181909e-25 1.5182104e-25 -8.464879e-26 8.4657705e-26
-7.7419384e-07 3.591492e-14 1.3460502e-12 2.8945159e-11 -3.1856778e-12 -5.953661e-07 -6.524984e-11 2.4321123e-10
-4.0753607e-12 -5.721602e-12 2.142587e-05 -6.5928425e-06 7.845752e-11 -1.9038134e-11 7.133233e-16 1.1158499e-10
-4.171134e-05 1.319787e-13 1.3301006e-11 6.3092436e-08 2.2572817e-16 5.1773574e-10 2.3341013e-11 -2.3118452e-11
-1.9618658e-12 -8.202966e-11 2.50005e-07 5.8611205e-10 -2.7189232e-13 -0.00014404856 2.3995945e-05 -6.520345e-06
6.704435e-13 -1.1159631e-06 6.214948e-17 3.5796932e-12 -7.7885875e-12 -1.802635e-11 -2.217154e-09 -4.3896796e-12
-5.4103938e-14 -2.5293034e-14 -4.305582e-08 1.7489665e-05 7.972321e-12 7.89311e-15 -9.175333e-09 -3.4916714e-10
-0.00012072362 -2.1238527e-11 -3.578336e-14 6.7656345e-08 2.1725631e-05 -2.6469241e-14 -5.2551557e-12 -6.0117753e-12
2.4976634e-06 -1.3387879e-06 -7.3992436e-16 6.068541e-08 -3.8027042e-07 2.6053402e-07 -1.3816722e-05 9.3988865e-06
-8.617478e-37 8.706669e-37 4.2096356e-37 -4.187547e-37 -1.0405702e-37 1.0354006e-37 -5.7685986e-25 5.768468e-25
3.236055e-23 -3.2360737e-23 -7.514031e-26 7.5140727e-26 -3.043098e-25 3.0431776e-25 -2.9954922e-26 2.9954574e-26
-6.684982e-26 6.68501e-26 -7.2434973e-25 7.243369e-25 -4.618025e-34 4.5920857e-34 9.433896e-23 -9.4339327e-23
-3.3175319e-25 3.3174572e-25 7.100961e-35 -7.106329e-35 1.4017807e-34 -1.4110513e-34 -7.8572925e-26 7.857558e-26
5.909667e-39 -5.846328e-39 -6.051357e-35 6.17649e-35 4.1126964e-23 -4.1127008e-23 -2.923772e-25 2.9239899e-25
-1.1481022e-25 1.1480982e-25 -3.010115e-36 3.0262504e-36 -1.3341945e-06 -1.9596778e-09 -3.615493e-39 2.047482e-39
-4.9202953e-26 4.9202105e-26 -1.5896954e-25 1.5897099e-25 -5.9043564e-26 5.904307e-26 1.11977725e-23 -1.1197134e-23
-8.931816e-26 8.931747e-26 -4.346124e-26 4.3461426e-26 -1.1821515e-25 1.1821335e-25 -6.559084e-26 6.559008e-26
1.4478794e-33 -1.3760286e-33 2.4201417e-34 -6.52104e-34 -1.1117311e-33 1.14761245e-33 -4.1102657e-23 4.110192e-23
-4.330932e-17 4.6400213e-17 -1.3706218e-22 1.3628505e-22 -1.7168945e-22 1.7170219e-22 -2.3056655e-22 2.6286764e-22
-1.4281885e-22 1.3822118e-22 -1.7698997e-22 1.7699701e-22 2.0880148e-30 -7.171456e-31 -3.613405e-15 4.2905857e-15
-1.7503628e-22 1.7503878e-22 3.4492956e-31 -3.5071243e-31 1.0404771e-33 -4.8832386e-34 -1.2835854e-22 1.2725113e-22
-5.2109475e-35 -3.3688922e-35 1.8455261e-34 -1.999724e-32 -3.6590804e-17 2.900553e-17 -1.6986369e-22 1.6987937e-22
-1.2374323e-22 1.2632109e-22 1.11588165e-32 -1.119919e-32 -3.1543973e-16 2.2426977e-10 6.8387317e-35 -7.08312e-35
-1.4572894e-22 1.4289554e-22 -1.3940381e-22 1.3899228e-22 -1.9799841e-22 1.6818562e-22 1.1343794e-20 -9.699619e-21
-1.4126613e-22 1.3951138e-22 -2.1135236e-22 2.0501192e-22 -1.3603971e-22 1.3568257e-22 -1.4228178e-22 1.4151983e-22

C0_3.bias f4 [1, 64, 1]
00000000: 0e40 83b4 50b2 9ead 3944 37b4 cdef a1b8
00000010: bd41 273a bf44 35b9 d966 91b4 0c2f 3eb1
00000020: 7f60 613d 88c4 943d 58f3 e3ab a5f2 682e
00000030: c93d 053d d28f 0db5 5ffe 4b3d 665c baa8
00000040: c493 cab4 ef4f 013c 934c 82ae 8209 d7b3
00000050: ffdf 9310 696d ebb4 ea24 989f b6db 1db5
00000060: 5fcf 23b3 2063 73a2 d2b3 ba25 32ad c13b
00000070: 006b d19b de8b 0629 b0f1 35b9 166c dc3c
00000080: a9fb 23b2 4ae1 b83a 4a78 46b4 c8ec a8a4
00000090: 3b9e 053d fcdb e73c 8163 0fb1 5642 ddb3
000000a0: aec4 efb3 d017 a7b4 5280 56b3 d926 ecad
000000b0: 69c9 da3c e982 913b a27a 0f3a cb23 1fb5
000000c0: 2168 523d 0d5a 623d bcbf 8e23 adb4 b4b4
000000d0: b09d 34b5 2217 593d 22cd 22b5 d993 5db5
000000e0: 895b 69b4 8282 13b4 8290 f3b4 b4af 88b4
000000f0: 1468 3fb2 2c94 e3b3 1daf f73c 632f 50ad
-2.4447257e-07 -1.8041707e-11 -1.7068022e-07 -7.7217446e-05 0.000638034 -0.00017287115 -2.7083186e-07 -2.7675382e-09
0.055023666 0.07264048 -1.6196862e-12 5.2966204e-11 0.032529626 -5.273588e-07 0.049803134 -2.069022e-14
-3.7732946e-07 0.007892593 -5.925318e-11 -1.0013447e-07 5.83264e-29 -4.3851767e-07 -6.443557e-20 -5.880678e-07
-3.8139998e-08 -3.2985117e-18 3.2387708e-16 0.005910539 -3.4645297e-22 2.9875293e-14 -0.00017351541 0.026907008
-9.54507e-09 0.0014105227 -1.8483948e-07 -7.325951e-17 0.032621603 0.028303139 -2.08658e-09 -1.0303181e-07
-1.11650806e-07 -3.11235e-07 -4.9942464e-08 -2.6847346e-11 0.026707368 0.0044406545 0.0005473291 -5.92842e-07
0.051368836 0.05526166 1.5476874e-17 -3.3659072e-07 -6.728469e-07 0.053000577 -6.064821e-07 -8.254406e-07
-2.1733116e-07 -1.373792e-07 -4.536742e-07 -2.5459815e-07 -1.1141328e-08 -1.05974635e-07 0.030234868 -1.1833953e-11

C0_4.theta f4 [128, 64, 2]
00000000: 4578 ec22 ae7b eca2 a06f f52b a004 3a2f
00000010: 022c a522 362f a5a2 ea9c 4ca6 7d9f 4c26
00000020: 7eda 9c2a b7dc 9caa 9290 c0a6 1292 c026
00000030: 9271 0623 a870 06a3 a993 871f 9193 879f
00000040: 220d e8ae 220d e82e d481 1daf e181 1d2f
00000050: c963 39a6 8754 3e26 900d d5b0 0805 6732
00000060: 27ef 7dae 21ef 7d2e 6cbf 8423 78bf 84a3
00000070: 9bc5 cfae a1c5 cf2e b886 3b26 0cf7 3da6
00000080: 385b 3d23 c056 3da3 bfe8 17ad 81e6 172d
00000090: 8abd d037 9c48 2fae 6791 3922 1c90 39a2
000000a0: a8ee 0690 ca40 1f91 b65c 1523 cc5c 15a3
000000b0: 4834 2520 d4ce 1da0 0957 9523 0257 95a3
000000c0: 4cb8 8221 cbb8 82a1 3c0f 11a5 762e 2fa5
000000d0: 6036 c8a6 6a29 e8a5 0c33 bcac 5233 bc2c
000000e0: dc9b bc94 15b9 bc14 6dfb 45a8 fff9 4828
000000f0: b247 02a7 d047 0227 c0de 4aae bade 4a2e
00000100: 24d0 7020 7bd0 70a0 4e97 7a2a f595 7aaa
00000110: 0452 b422 e852 b4a2 da2b 8025 8820 80a5
00000120: c864 7eae c864 7e2e 0bcd 56ae 0ecd 562e
00000130: 207d 3bb2 afd6 5d34 15d4 4122 6ad0 41a2
00000140: 35b6 4f22 abb3 4fa2 41e3 1823 f6e3 18a3
00000150: a801 ae21 7301 aea1 d8ce 661c 66c9 669c
00000160: d084 48ae d884 482e 7855 63ac 7b55 632c
00000170: 07b9 ae2a 64b4 aeaa abad 9623 12ad 96a3
00000180: 3312 d7ae 1a12 d72e 6a35 e9ae 6835 e92e
00000190: 7ca9 8f25 0d1b 92a5 db88 2723 ab8a 27a3
000001a0: 26c1 aa23 40c1 aaa3 0a6b deae f56a de2e
000001b0: 885a 9a23 c95a 9aa3 c5c7 d123 e6c7 d1a3
000001c0: 434d d222 5a50 d2a2 c48a 8222 5c8a 82a2
000001d0: 9357 6523 ce56 65a3 6f95 f722 8895 f7a2
000001e0: dc99 8d20 009a 8da0 ec4e 4522 474f 45a2
000001f0: a3a7 68ae 9fa7 682e 30af de1b fcb0 de9b
00000200: 3eeb 6b16 b01d 6e96 12d1 9ea9 3ad7 03b1
00000210: 09fc 2016 421c 2196 7bb9 619a 08bb 611a
00000220: 2beb 9a9e 23eb 9a1e 6392 dc19 90af dc99
00000230: 4caa 9416 2f7d 9496 d0ad 5593 1e91 5613
00000240: 42b4 2b21 4ab4 2ba1 c4b7 c220 56b7 c2a0
00000250: c807 3498 264f 3318 a045 19a7 3090 a8a7
00000260: 80c2 5f21 70c2 5fa1 b0f0 1517 85f4 1597
00000270: f15f 4221 f15f 42a1 92ba a325 d37a 849f
00000280: 5ab8 d616 2eb7 d696 2259 9820 4d59 98a0
00000290: c02c c9a8 4d92 66ab cab7 3915 8a5d 3a95
000002a0: 50ca d183 6671 2f04 db77 e016 3d70 e096
000002b0: b3b5 33b0 26a5 2e14 f2d1 2417 d6dd 2497
000002c0: 3334 e894 cf6f e114 f06d b698 f871 26a5
000002d0: 964b ac36 f057 6033 9f90 3520 5992 35a0
000002e0: 21d7 2287 b49b 5e87 ff8d 439b 7f15 421b
000002f0: 264e 989a e8fd 971a dba1 5521 dfa1 55a1
00000300: 04f6 6f94 4e56 7014 8c5e 0e9f 4e5e 0e1f
00000310: cf37 3e16 8b98 3d96 54b6 9217 ca39 9397
00000320: b6a9 6021 b8a9 60a1 acef 5c21 b0ef 5ca1
00000330: 30c4 e7b4 6234 9da2 3654 8a15 5286 8895
00000340: 17b3 3415 b7aa 3495 f6fd a616 61f6 a696
00000350: 5e5a ea94 67d5 ed14 efca 5210 d812 5390
00000360: fd79 5921 007a 59a1 37f7 b81f 32f7 b89f
00000370: 5f2c 769e 0657 761e e613 2517 4825 2597
00000380: c0df 3621 d1df 36a1 45df 2e21 48df 2ea1
00000390: 3b53 e197 e22a e917 aafb be16 5a01 bf96
000003a0: 7730 3a17 b628 3a97 c4d4 3221 bed4 32a1
000003b0: afe4 2717 e2e1 2797 93a5 5a17 1fb5 5a97
000003c0: eb8b 5516 56a8 5596 409c da15 e9c6 dc95
000003d0: f032 0117 163c 0197 cb33 8116 317d 8096
000003e0: 5548 8b94 9f6b 8b14 f3ff 6215 29cb 6295
000003f0: cd31 5f21 d631 5fa1 254e a60f b238 a68f
6.409527e-18 -6.409888e-18 1.7439279e-12 1.6918245e-10 4.4769935e-18 -4.4773326e-18 -7.0989376e-16 7.0992865e-16
2.7862776e-13 -2.7864318e-13 -1.3361862e-15 1.3362269e-15 7.288204e-18 -7.2880104e-18 5.741901e-20 -5.741885e-20
-1.05524714e-10 1.05524714e-10 -1.4325191e-10 1.4325209e-10 -6.4320003e-16 6.603405e-16 -1.5501644e-09 1.3447114e-08
-5.773795e-11 5.773793e-11 1.4392539e-17 -1.4392559e-17 -9.448372e-11 9.448376e-11 6.5061236e-16 -6.590736e-16
1.0265027e-17 -1.02640806e-17 -8.635036e-12 8.634538e-12 2.4883793e-05 -3.9854883e-11 2.514915e-18 -2.5148466e-18
-2.6610694e-29 -1.2562853e-28 8.0969385e-18 -8.096957e-18 1.3993342e-19 -1.3366851e-19 1.6191473e-17 -1.6191462e-17
8.857926e-19 -8.858057e-19 -1.2581907e-16 -1.5194572e-16 -1.3892526e-15 -4.0273648e-16 -5.3489487e-12 5.348979e-12
-1.9044625e-26 1.9056151e-26 -1.0990216e-14 1.11564395e-14 -1.807999e-15 1.8080054e-15 -4.6127324e-11 4.6127303e-11
2.0397659e-19 -2.0397771e-19 2.2256955e-13 -2.2256487e-13 4.8875935e-18 -4.887688e-18 2.2234175e-16 -2.2226505e-16
-5.7842425e-11 5.7842425e-11 -4.884008e-11 4.884009e-11 -1.0913283e-08 2.066033e-07 2.6268653e-18 -2.626671e-18
2.815019e-18 -2.8148847e-18 8.288059e-18 -8.288209e-18 1.1791137e-18 -1.1791082e-18 7.6367956e-22 -7.636092e-22
-4.5592696e-11 4.5592724e-11 -3.2306085e-12 3.2306091e-12 3.1036998e-13 -3.103378e-13 1.6336584e-17 -1.633633e-17
-9.780301e-11 9.7802835e-11 -1.06051015e-10 1.06051e-10 2.4921393e-16 -2.5345293e-16 9.082068e-18 -9.082452e-18
1.8513238e-17 -1.8513281e-17 -1.0114405e-10 1.01143906e-10 1.6735055e-17 -1.6735162e-17 2.2744431e-17 -2.2744486e-17
5.700242e-18 -5.700569e-18 3.5383494e-18 -3.5383064e-18 1.24326594e-17 -1.24324965e-17 6.7107703e-18 -6.7107807e-18
2.3988145e-19 -2.3988238e-19 2.674026e-18 -2.6740448e-18 -5.2899584e-11 5.289957e-11 3.6840031e-22 -3.6841193e-22
1.9057378e-25 -1.9234855e-25 -7.0528774e-14 -1.918535e-09 1.3004225e-25 -1.3014393e-25 -4.667874e-23 4.6679992e-23
-1.6402647e-20 1.6402635e-20 2.2806592e-23 -2.2818376e-23 2.4018162e-25 -2.3989692e-25 -2.6970076e-27 2.7082146e-27
5.8175623e-19 -5.8175664e-19 3.2986484e-19 -3.29862e-19 -2.3268383e-24 2.3175168e-24 -2.127076e-15 -4.6785695e-15
7.581276e-19 -7.5812675e-19 4.8448287e-25 -4.8453124e-25 6.5856734e-19 -6.5856734e-19 2.8402418e-16 -5.610737e-20
3.4689907e-25 -3.4689167e-25 2.5808785e-19 -2.5808896e-19 -2.233489e-14 -8.191545e-13 3.7505436e-26 -3.763619e-26
-1.2330365e-36 2.0623221e-36 3.6264791e-25 -3.6259984e-25 -6.537803e-10 8.817325e-27 5.3256246e-25 -5.3271254e-25
-2.3446602e-26 2.2763295e-26 -4.7156906e-24 -1.4436819e-16 5.134799e-06 5.2234043e-08 1.5379147e-19 -1.5379719e-19
-1.2250746e-34 -1.6747181e-34 -1.6175903e-22 1.605425e-22 -6.299198e-23 6.2862344e-23 7.238142e-19 -7.238144e-19
-1.21149344e-26 1.2133924e-26 -3.0147877e-20 3.0147677e-20 1.5365688e-25 -1.5315432e-25 9.481055e-25 -9.51424e-25
7.6118763e-19 -7.6118773e-19 7.48561e-19 -7.4856123e-19 -4.3169848e-07 -4.2610398e-18 5.587062e-26 -5.514188e-26
3.6491987e-26 -3.648538e-26 2.6979018e-25 -2.6974233e-25 -2.3663605e-26 2.4015057e-26 4.1571532e-29 -4.162693e-29
7.368391e-19 -7.3683925e-19 7.8336014e-20 -7.833598e-20 -1.3032307e-20 1.30411276e-20 5.333949e-25 -5.336143e-25
6.196013e-19 -6.1960217e-19 5.924899e-19 -5.9249003e-19 -1.4561295e-24 1.5068097e-24 3.0854978e-25 -3.0858567e-25
6.0161013e-25 -6.0151226e-25 6.059034e-19 -6.059031e-19 5.424925e-25 -5.4245714e-25 7.0648583e-25 -7.0668206e-25
1.7250153e-25 -1.725912e-25 8.829602e-26 -8.917112e-26 4.174644e-25 -4.1757987e-25 2.087376e-25 -2.0758522e-25
-1.4063943e-26 1.4077862e-26 4.5842245e-26 -4.5800602e-26 7.562125e-19 -7.5621296e-19 1.6398964e-29 -1.6390702e-29

C0_4.bias f4 [1, 128, 1]
00000000: fe8c 23b1 649f c2a2 3857 f02f 954e eab3
00000010: 94d9 3535 c800 e7b2 8c3f b632 1d0a 9e32
00000020: e870 a6a5 2701 a0b3 44d2 29aa 434d 32b3
00000030: e078 e3b0 6b11 fd31 21c5 3733 e9b0 a4a3
00000040: efe3 0d32 7023 5ab2 7741 6e2b d116 0428
00000050: 1129 5d29 7a9b b332 1cfd dc34 93c9 ea31
00000060: eaab 4ea9 c6be ddb0 c0d0 1432 09b4 bf31
00000070: 6ad6 6532 9ed7 f322 e40a 7b2c 3d08 d4b3
00000080: c1ff 05b1 0b58 adb2 a0e9 9d23 6c55 0ab4
00000090: ab70 3132 db5f 57b2 2772 4cb2 55b8 bbb2
000000a0: 86ad 5332 e542 47b5 ff06 a5b2 0a70 962f
000000b0: 40c7 c2b0 dc12 03b3 6509 d735 84bd 1132
000000c0: ac26 ada4 fb0e beb2 8aca a2b1 de13 c6b2
000000d0: 4c3d 07b3 2096 bf31 976b 10b1 8ca0 73b6
000000e0: 77b7 9fa9 fa34 4133 9b9e ccb1 b712 e132
000000f0: b487 0136 745a 51b1 9e13 7223 ddc1 0d2d
00000100: 0156 8b32 92ee bab0 194c 26b2 39d2 dbaf
00000110: be80 cb32 4b4d ecb2 7e2a 01b2 b63c 36a3
00000120: 9f6b 7933 2d4c 87b3 9237 d3b5 b376 c035
00000130: c6aa 972d 33d2 4731 fa6d 8fa8 9815 4aa3
00000140: 4ec6 fa32 c076 2433 19b9 42b3 5799 36af
00000150: 916f eba7 1169 2ab3 ef3f 1ab5 de16 9bb4
00000160: 6a0f 5727 b8c3 45a4 77ce 8231 c638 2cb3
00000170: 50e9 19b6 d05c 1b31 d89e 8726 38a4 9c38
00000180: 4037 7eb0 635d f9b2 2959 152c 1086 37b2
00000190: 2784 7c33 5ca3 8a31 3c68 5332 33f6 fe32
000001a0: 5896 a0ad 95c0 49b3 98fe 7d33 e67e 7a2f
000001b0: 1b4c 102d 1032 8cb4 bfa9 c531 0275 2cb3
000001c0: 601b 18b1 600a f532 6394 af30 0a38 1a30
000001d0: 1a0b d427 0483 f6b2 e9e4 99af fdfb cda5
000001e0: b55b 25b3 0248 1db0 1609 0933 d596 cd32
000001f0: aaae 8932 0123 c92d aadf 9133 5c24 4c34
-2.3799767e-09 -5.2752567e-18 4.3717718e-10 -1.0910768e-07 6.774437e-07 -2.6892295e-08 2.1216486e-08 1.839822e-08
-2.8872918e-16 -7.45079e-08 -1.5083166e-13 -4.1514124e-08 -1.6550779e-09 7.3652493e-09 4.2787295e-08 -1.785584e-17
8.259106e-09 -1.2697328e-08 8.4645436e-13 7.3324195e-15 4.9107477e-14 2.0909045e-08 4.1162355e-07 6.8332127e-09
-4.58903e-14 -1.6134087e-09 8.662198e-09 5.5792992e-09 1.33783065e-08 6.6093576e-18 3.567529e-12 -9.873518e-08
-1.9499427e-09 -2.0179888e-08 1.7120918e-17 -1.2883328e-07 1.0328374e-08 -1.2536442e-08 -1.1900318e-08 -2.185349e-08
1.2321271e-08 -7.423062e-07 -1.921171e-08 2.736445e-10 -1.4171988e-09 -3.0517967e-08 1.6021482e-06 8.483202e-09
-7.50923e-17 -2.2125723e-08 -4.7378466e-09 -2.3059268e-08 -3.1487886e-08 5.575899e-09 -2.1015916e-09 -3.6303272e-06
-7.0928445e-14 4.4984496e-08 -5.9552128e-09 2.6201958e-08 1.9301488e-06 -3.046492e-09 1.3123e-17 8.057968e-12
1.622084e-08 -1.3601087e-09 -9.679774e-09 -3.998524e-10 2.3690855e-08 -2.7509165e-08 -7.51845e-09 -9.879096e-18
5.807271e-08 -6.300284e-08 -1.5736898e-06 1.4339661e-06 1.7242551e-11 2.9077796e-09 -1.5923884e-14 -1.0955015e-17
2.9194009e-08 3.8292228e-08 -4.533749e-08 -1.6607281e-10 -6.5346563e-15 -3.9676767e-08 -5.7462506e-07 -2.8887638e-07
2.98456e-15 -4.2883346e-17 3.8069703e-09 -4.0098506e-08 -2.2934582e-06 2.2608226e-09 9.410561e-16 7.469248e-05
-9.2483177e-10 -2.9029882e-08 2.1223667e-12 -1.0682484e-08 5.8793514e-08 4.0349004e-09 1.2305517e-08 2.968145e-08
-1.825666e-11 -4.697411e-08 5.9137705e-08 2.2782451e-10 8.202351e-12 -2.6113457e-07 5.7527525e-09 -4.015329e-08
-2.2134472e-09 2.8526472e-08 1.27751e-09 5.610451e-10 5.8853857e-15 -2.8697748e-08 -2.7993188e-10 -3.5732585e-16
-3.8500463e-08 -5.7218597e-10 3.1906062e-08 2.3933731e-08 1.6028327e-08 2.28666e-11 6.792773e-08 1.9012208e-07

C1_1.theta f4 [16, 4, 2]
00000000: fdb9 751a 587e 0f9b f52a 791a 60f2 0d9b
00000010: 288a ac1a b232 129b 9a72 991a 809d 0e9b
00000020: 0c80 3aa6 a807 941e 70a3 0da7 2d2f 0220
00000030: a89f dea5 7329 f71d 7b8d 8da6 35bc 3f1f
00000040: 5edf ad94 0a67 7894 2146 a394 b342 6294
00000050: 2080 8194 0038 1c94 a246 5794 53db 1794
00000060: dfb8 e00f ed8f 900f f0f5 8b8f c093 a08f
00000070: 4cce 0c10 86d7 da0f f4c9 0a8f 1c48 538f
00000080: a895 b598 1fdc 5a18 537a a098 ac99 4a18
00000090: a80c bb98 0799 7a18 f808 ac98 0f2d 5918
000000a0: c860 4910 c797 c28f 9bc8 4310 5a0e b98f
000000b0: e8ee 5110 5a56 0290 a269 5510 0d54 f58f
000000c0: 8435 3512 eef1 8092 8677 5012 300b 8092
000000d0: 494c 4312 0650 7392 da97 3412 409f 6f92
000000e0: f045 7096 a800 b191 6276 0f98 da76 ba91
000000f0: 5103 8a95 974c c191 f6e2 2e97 8129 cb91
00000100: a528 e194 6f34 0514 32c4 ec94 04a2 3b14
00000110: 6eb0 e494 9837 3914 1282 d094 3a00 4214
00000120: 6496 bf05 6e3f c106 3aa3 5806 88c4 2007
00000130: 26b3 d285 7af8 aa06 7431 8e05 ec68 f306
00000140: d530 e30b 14ae 688b 849d 110a 6d97 4e8b
00000150: d562 db0b 0023 848b 7c05 fe0a 7aea 7c8b
00000160: 50b7 8996 1264 eb97 2827 f497 9487 7817
00000170: d1cd a098 f9df bc17 7b50 7698 78b2 c516
00000180: 5207 d40d 51ef 2b8e bbb6 e30d ecbc 248e
00000190: afdb 090e 083b 2d8e f1aa 050e 21ac 248e
000001a0: 5b42 2e98 64a9 ce17 4739 2e98 884c e017
000001b0: 8cc7 1b98 7a2e df17 a4dd 0998 be90 d617
000001c0: cc15 4915 d592 9b95 243f 3715 8a4f 9395
000001d0: badd 5715 ee8b 9795 4296 4f15 a86a 8895
000001e0: 16a3 5d95 1765 2616 2737 5e95 3037 2b16
000001f0: ad04 d795 b450 0a16 b594 de95 a40e 1616
5.0815053e-23 -1.1869507e-22 5.1526694e-23 -1.1741562e-22 7.1360736e-23 -1.2093217e-22 6.3464466e-23 -1.1796856e-22
-6.470525e-16 1.5673276e-20 -1.965628e-15 1.1027037e-19 -3.8619048e-16 6.5423213e-21 -9.822189e-16 4.0601504e-20
-1.7556639e-26 -1.2541121e-26 -1.6486455e-26 -1.1423238e-26 -1.3076208e-26 -7.887031e-27 -1.0868656e-26 -7.666806e-27
2.2159315e-29 1.4254934e-29 -1.380119e-29 -1.583413e-29 2.7769057e-29 2.1579476e-29 -6.84282e-30 -1.0416991e-29
-4.6938518e-24 2.8286972e-24 -4.1482547e-24 2.6185473e-24 -4.8351147e-24 3.2389002e-24 -4.4470014e-24 2.8069341e-24
3.9714818e-29 -1.918834e-29 3.861151e-29 -1.8247936e-29 4.140203e-29 -2.5704502e-29 4.208822e-29 -2.419124e-29
5.7179493e-28 -8.137576e-28 6.578055e-28 -8.080694e-28 6.162518e-28 -7.6775916e-28 5.6985157e-28 -7.5611393e-28
-1.9409114e-25 -2.792608e-28 -1.8542085e-24 -2.9418874e-28 -5.574299e-26 -3.0497233e-28 -5.6508897e-25 -3.2053332e-28
-2.2735226e-26 6.725125e-27 -2.3907296e-26 9.473039e-27 -2.3091706e-26 9.351077e-27 -2.1053936e-26 9.794542e-27
1.8016798e-35 7.269173e-35 4.0745005e-35 1.2094817e-34 -1.9814114e-35 6.4311996e-35 1.3371782e-35 9.156061e-35
8.7510694e-32 -4.4812537e-32 7.0111214e-33 -3.9788077e-32 8.450444e-32 -5.089721e-32 2.4461373e-32 -4.8709835e-32
-2.224923e-25 -1.521178e-24 -1.5778015e-24 8.0304245e-25 -4.1566852e-24 1.2205754e-24 -3.1835387e-24 3.1939696e-25
1.3067271e-30 -2.1192604e-30 1.4033946e-30 -2.0305523e-30 1.6992328e-30 -2.1352319e-30 1.6475821e-30 -2.0297438e-30
-2.2522474e-24 1.3355198e-24 -2.251789e-24 1.449498e-24 -2.0134026e-24 1.442277e-24 -1.7818735e-24 1.3865964e-24
4.060882e-26 -6.283566e-26 3.7006365e-26 -5.949832e-26 4.3593816e-26 -6.1209184e-26 4.192185e-26 -5.5098236e-26
-4.4759247e-26 1.3441272e-25 -4.487605e-26 1.3830684e-25 -8.6845186e-26 1.1173017e-25 -8.9899704e-26 1.2121523e-25

C1_1.bias f4 [1, 16, 1]
00000000: 7e69 ae99 8d05 22b2 004b f394 40fa 180c
00000010: b24c ce17 745b e5a6 1cba f312 b7cc baab
00000020: 4ae8 8295 6203 8707 981b 250c 2c70 2b18
00000030: 8218 0f0e 70ff 9498 1cb7 3e15 7df1 3395
-1.8033786e-23 -9.430903e-09 -2.4566312e-26 1.1784961e-31 1.3331799e-24 -1.5914855e-15 1.53813355e-27 -1.3272915e-12
-5.287307e-26 2.031453e-34 1.2719441e-31 2.2157864e-24 1.763791e-30 -3.851503e-24 3.8514642e-26 -3.6339263e-26

C1_2.theta f4 [32, 16, 2]
00000000: 589e 8a8c b028 582b 7e12 660c e10c 860b
00000010: ffea 0000 5576 0600 002d 0100 6151 2000
00000020: 40da 0400 f417 1080 cc30 f581 8906 b401
00000030: 55b3 0100 899a 0500 cc83 4586 3bca 4606
00000040: 858e 0400 4eac 0700 aa76 2300 a395 0600
00000050: 0ab3 0000 2367 0600 5870 6b97 28c3 3623
00000060: 0b18 0180 c266 0300 5d9a 0600 a7bf 0600
00000070: a4e9 0d02 6fe8 ba82 2ea8 0501 4b84 5b06
00000080: e810 4b9d 6ebf fdb7 5478 850b eefc 418b
00000090: a5b5 0200 0d2a 0580 d239 0800 bb77 1780
000000a0: c6be 2d80 50ec 0400 64a3 9901 3c0c ac01
000000b0: eee0 0080 ccfd 0400 d83b 0283 ab8c 1a06
000000c0: 2723 1f00 a1f6 1f00 74a8 c4ac 2ae3 9d31
000000d0: a890 0080 41f2 0680 681c 021e 4cf7 d92f
000000e0: 7ff8 0600 84e7 0300 ca16 0c00 f37d 0000
000000f0: 92a0 2b2a 76f8 ab30 80b5 d530 470a 562e
00000100: d615 5b80 4a61 4a02 2069 dd90 8988 8010
00000110: 82b9 0500 2fb8 0580 a274 0700 4ae5 2300
00000120: c321 1700 8468 0300 7e0a e685 3f2f 5a05
00000130: 8c6c 0000 ba86 0300 c899 a68a ca0d 2e0a
00000140: 6e70 0680 1345 0100 64c4 0080 624e 0000
00000150: 0f51 0080 b034 0480 50fc 53a6 5bc7 9028
00000160: dd16 0000 d322 1580 7d46 1480 0063 0300
00000170: 913a 0780 9090 0200 300b 0480 65e7 0300
00000180: 4b6e 0ab8 ccbc 49a3 82b4 678d 8bef fb0c
00000190: 1657 0580 1123 0100 e4b8 0300 b1d4 0680
000001a0: b5dd 0400 581f 0280 a55f 8882 97dc 0f02
000001b0: 59e2 0200 b81d 0680 23b8 3987 0770 c606
000001c0: db1c 0180 e4a9 0300 c4e9 4901 3236 5c00
000001d0: da16 0400 5fdb 0080 d4d1 6d81 6d2f 0301
000001e0: 6cbf 0080 47bc 0300 feef 0580 afcd 0000
000001f0: ce40 0780 308f 5b82 6473 c601 9804 0780
00000200: 6a9f 5632 d860 a998 b0b6 a08f b898 7e8f
00000210: 6e42 5e80 eadd 0380 3471 a400 d630 1980
00000220: 4504 1c80 6f51 2701 cec0 210f ccdc 612a
00000230: 58dd 8700 3a4d 3180 454a 102b 307c 552c
00000240: 23f4 1600 9022 8b00 2ac8 a0a5 e427 0003
00000250: 9d43 0480 e830 0e00 245d 51b7 9e03 50a5
00000260: 3a92 0700 c831 1c80 5f74 a980 0108 9c80
00000270: d320 2421 8898 74ad 405a 96b3 580d 95b3
00000280: 349b 0680 e8fa f3a2 006d 240c 2a96 520d
00000290: 94c7 0580 bb30 0200 15c0 0100 78f2 0580
000002a0: a998 0000 6448 0580 dc77 dc82 09a4 ca02
000002b0: 2a2a 0300 4dfd 0180 3a4c 3287 d5c0 8507
000002c0: 201d 0080 77e2 0080 a0c9 2201 7a03 5c00
000002d0: c4f5 0500 8458 0480 90aa cfb3 dd6b 5528
000002e0: ba9d 0700 50ed 0000 f0e6 0680 62b5 0280
000002f0: 3a82 e892 203a 00ab aa14 fa81 64ed 5226
00000300: b82b 0480 6872 0b00 0a86 c10e f762 948e
00000310: 1308 0700 0aa5 0680 3428 2a00 9016 1300
00000320: 4359 0080 cd43 0180 8479 9804 7736 8883
00000330: 1110 0000 6907 0f80 17b5 2889 c695 9408
00000340: 8ea3 0700 1c3e 0380 a18d 0180 9f92 0480
00000350: 7745 0100 2f5b 0200 c0a1 c2b6 ba67 ab2b
00000360: b782 0480 d9fd 0180 550e 1700 dd4e 1d80
00000370: b887 0280 4296 0200 2525 0300 14aa 0400
00000380: 10d9 1880 bb1b 2d80 a8fe 0f8c f66e 710d
00000390: e263 5780 0ea8 9280 1f48 f580 8a9d 4300
000003a0: 845c 9900 ee02 5e00 75e8 ca81 b04e ae02
000003b0: be88 0e00 9cba 0380 06ad a886 e9c7 5307
000003c0: d0fd 1500 0e29 0881 746a 0300 dc24 0080
000003d0: 32b0 a100 da54 f100 eb55 bca9 8633 48ad
000003e0: 2144 3200 8376 2801 c03d 7000 f2bf 1481
000003f0: 1134 0280 008c 0080 bdaa 0380 d086 0f80
-2.1357566e-31 7.679508e-13 1.772412e-31 5.16343e-32 8.4301e-41 5.93463e-40 1.07978e-40 2.967929e-39
4.45635e-40 -1.477961e-39 -9.0068806e-38 6.6130935e-38 1.56168e-40 5.14614e-40 -3.714841e-35 3.7388237e-35
4.18468e-40 7.0466e-40 3.256811e-39 6.04693e-40 6.4227e-41 5.88011e-40 -7.6074393e-25 9.907566e-18
-1.0046e-40 3.12369e-40 6.06388e-40 6.19765e-40 1.0426096e-37 -2.7463654e-37 2.4548905e-38 4.1286516e-35
-2.6875567e-21 -3.0249092e-05 5.1410786e-32 -3.736073e-32 2.48833e-40 -4.74262e-40 7.55426e-40 -2.155168e-39
-4.201034e-39 4.52115e-40 5.643778e-38 6.3200377e-38 -8.069e-41 4.58387e-40 -3.8272264e-37 2.9067527e-35
2.85951e-39 2.935374e-39 -5.589357e-12 4.595127e-09 -5.1893e-41 -6.37917e-40 6.888017e-21 3.9647785e-10
6.40157e-40 3.58559e-40 1.110201e-39 4.5182e-41 1.524356e-13 1.2512504e-09 1.5549375e-09 4.8667095e-11
-8.364863e-39 1.4868537e-37 -8.73311e-29 5.0697464e-29 5.25725e-40 -5.2525e-40 6.84688e-40 3.296496e-39
2.124328e-39 3.13e-40 -2.163295e-35 1.02589885e-35 3.8939e-41 3.23837e-40 -1.6043065e-32 8.380389e-33
-5.91345e-40 1.16615e-40 -7.0452e-41 2.8118e-41 -2.9078e-41 -3.86243e-40 -7.354728e-16 1.6073668e-14
8.202e-42 -1.941038e-39 -1.861996e-39 3.11021e-40 -6.63858e-40 2.3553e-40 -3.71355e-40 3.58515e-40
-3.3004482e-05 -1.0936211e-17 -7.139965e-31 3.8816843e-31 -4.90418e-40 1.04415e-40 3.41833e-40 -6.27312e-40
4.46875e-40 -1.94915e-40 -2.0038301e-37 1.0569287e-37 2.64869e-40 -5.61674e-40 -1.3971966e-34 7.464393e-35
-1.02187e-40 3.36452e-40 3.7085588e-38 8.468307e-39 3.7554e-40 -7.8696e-41 -4.368057e-38 2.4094926e-38
-6.8669e-41 3.43048e-40 -5.4527e-40 7.3785e-41 -6.66096e-40 -1.6130672e-37 7.289929e-38 -6.44496e-40
1.2492686e-08 -4.3783263e-24 -1.5847587e-29 -1.25525794e-29 -8.656367e-39 -3.55114e-40 1.5101631e-38 -2.313406e-39
-2.572926e-39 3.0731481e-38 7.975046e-30 2.0060619e-13 1.2477195e-38 -4.527643e-39 5.1262147e-13 3.0338058e-12
2.10796e-39 1.2777533e-38 -2.7891212e-16 3.766161e-37 -3.91597e-40 1.303241e-39 -1.2479057e-05 -1.804235e-16
6.95305e-40 -2.589252e-39 -1.5561945e-38 -1.4329209e-38 5.5608804e-19 -1.3903663e-11 -7.001336e-08 -6.9407804e-08
-6.0669e-40 -6.613094e-18 1.2666901e-31 6.4892e-31 -5.30773e-40 2.01152e-40 1.60742e-40 -5.46159e-40
5.4764e-41 -4.85146e-40 -3.239489e-37 2.9775384e-37 2.90632e-40 -1.82703e-40 -1.3413633e-34 2.0124952e-34
-1.0448e-41 -8.124e-41 2.989936e-38 8.450113e-39 5.47342e-40 -3.99095e-40 -9.670214e-08 1.1847264e-14
6.9943e-40 8.5132e-41 -6.33858e-40 -2.48739e-40 -1.4673362e-27 -4.55554e-13 -9.186515e-38 7.318011e-16
-3.83025e-40 1.051232e-39 4.770725e-30 -3.6580117e-30 6.45745e-40 -6.10218e-40 3.871513e-39 1.752968e-39
-3.2021e-41 -1.16158e-40 3.5846623e-36 -8.005866e-37 5.764e-42 -1.380191e-39 -2.0307412e-33 8.942638e-34
7.01521e-40 -2.97787e-40 -1.42642e-40 -4.1994e-40 1.16755e-40 2.16382e-40 -5.8004807e-06 1.2179071e-12
-4.14234e-40 -1.82899e-40 2.117358e-39 -2.69152e-39 -2.32358e-40 2.37573e-40 2.88831e-40 4.28355e-40
-2.281919e-39 -4.142545e-39 -1.1092952e-31 7.4397423e-31 -8.02552e-39 -1.3468269e-38 -2.2525569e-38 6.209493e-39
1.4084019e-38 8.633588e-39 -7.453664e-38 2.5612167e-37 1.334751e-39 -3.4245e-40 -6.344881e-35 1.5932624e-34
2.019596e-39 -2.500871e-38 3.13695e-40 -1.3223e-41 1.4848722e-38 2.2162794e-38 -8.3637815e-14 -1.1380124e-11
4.616215e-39 3.0941755e-38 1.0307727e-38 -2.732102e-38 -2.02349e-40 -5.0223e-41 -3.36756e-40 -1.425894e-39

C1_2.bias f4 [1, 32, 1]
00000000: 8621 4fa6 ecf2 e018 59e4 6b24 3b21 6eb9
00000010: a783 159e fcb2 e7b7 c5f2 7d31 84b4 1239
00000020: d55d 07b6 517e 699c aee3 9d9c 7b4b e4b6
00000030: 56e8 2bb5 bd55 95b6 f4e0 4938 2ca0 02a3
00000040: 10e2 aab8 16c9 d5b0 0e65 42b8 44ab 242b
00000050: c10c 3f1e fa9c 7fb8 7267 9fb7 d78e 8fb8
00000060: b095 29b9 9c02 2da2 85a8 a22f 84c3 02b8
00000070: e680 bf9e 44d7 58b6 bc94 56b9 4a2d 43b9
-7.1862985e-16 5.814793e-24 5.115092e-17 -0.00022709828 -7.915219e-21 -2.7620692e-05 3.6954344e-09 0.00013990892
-2.0171185e-06 -7.7256493e-22 -1.0448242e-21 -6.8037166e-06 -6.404056e-07 -4.4505273e-06 4.813164e-05 -7.081232e-18
-8.148339e-05 -1.5554942e-09 -4.634732e-05 5.8502183e-13 1.0114093e-20 -6.0942933e-05 -1.9002448e-05 -6.845377e-05
-0.00016172859 -2.3447253e-18 2.958737e-10 -3.1176503e-05 -2.0276223e-20 -3.231181e-06 -0.00020464038 -0.0001861352

C1_3.theta f4 [64, 32, 2]
00000000: 52af 0480 747b 0380 55aa 7532 0ac9 ca36
00000010: e233 3080 15ea 3c00 f0a3 be0f 06cd 940f
00000020: 42f4 7a01 ecd3 ad01 c0a9 f28d 6e96 ec8c
00000030: f400 750b b603 690a 397e 8893 b5e2 5613
00000040: c980 ad8c deff 9f8b 3436 1202 1058 7a2b
00000050: 06b2 0932 06d6 459b dacc 958d fe88 b48b
00000060: 5dcb 888b eaf9 9e8b d6a0 4d8d 183f 7c8b
00000070: a8cf cc92 1573 5912 38aa 0480 94b0 0500
00000080: 6c04 c50e 6b43 970e 7338 ec06 987f 4588
00000090: 1c73 0c8d 90fd eb8b c434 b303 b282 1806
000000a0: 54cc 5481 8845 a1a4 208a 150e 5515 c40d
000000b0: 840b 0d8e f029 b48c 7800 820e 092b 390e
000000c0: 4352 8e0f 4ea1 850f 7756 5081 9837 0a02
000000d0: 8919 ab8a c84c ae0a 121e be8d 0297 d18c
000000e0: 7e32 19ab e2da 8030 51cd 138d 7e83 948b
000000f0: f250 b10f 56e8 9a0f 3440 a40f 2187 970f
00000100: 3d9b 0900 de5e 2c00 698f 1400 00a5 0500
00000110: e8dc 1700 a685 2b00 acf3 6d84 86bd 5b04
00000120: 1d4f ac80 6632 0300 ce3e 0702 7833 9103
00000130: 81da d280 de72 7080 02de f929 3fb1 d3a7
00000140: 54e7 5180 ac73 9b80 50e4 3d80 f0d1 1980
00000150: f5ba 0680 7880 0600 7913 1482 ac5a ae81
00000160: 2b53 3b01 15e4 4b80 2cae 8a82 b8d4 7c02
00000170: 4a89 5288 f208 238c fc22 0180 c5a5 0180
00000180: a824 af04 be84 5d04 ad1a 0480 674f 0200
00000190: ea48 9d82 7a27 af83 7a3d 0700 f3f8 0300
000001a0: 6af9 2881 21d0 0400 ddc5 db03 40d6 b482
000001b0: 7c9e 3781 c871 b603 a07c 8b04 a2fd 8503
000001c0: ac51 f203 32e0 3e83 2c6f 312a 60b2 19b7
000001d0: c533 0700 6b6c 6c80 1c2c 0d02 c43a 6a82
000001e0: 4176 0700 9b61 2500 3063 5382 1696 3602
000001f0: 54c8 3905 38f9 af03 37d1 4905 3954 8503
00000200: dfe6 0580 d268 0500 26c4 0380 d57c 0f00
00000210: b179 0280 d31d 0680 5d87 0400 47b8 0000
00000220: 8412 2880 9d61 1f80 abd7 0200 ce37 0580
00000230: fb45 0780 6377 0000 98c8 0180 cedf 0000
00000240: 8de5 0000 4251 0480 2aa6 0500 8eca 1100
00000250: 41fd 0200 8bf8 0200 ac81 0080 072a 0300
00000260: 6879 0400 1933 0000 1169 0400 f36a 0000
00000270: 4c08 0080 cb71 0480 10c8 0180 cbf9 1000
00000280: 3203 0180 cdab 0700 50cd 0680 3f7e 0500
00000290: 40a1 0300 b637 0680 6b59 0080 7baa 0180
000002a0: 7453 0580 b72f 2780 86c2 0580 123a 0400
000002b0: 724b 0000 9ac8 0380 40d4 0300 d0d7 0000
000002c0: b52a 0580 b7b7 0400 7b56 8a36 acc4 3230
000002d0: 023e 0400 70f3 0500 f6a9 0500 0bc4 0500
000002e0: ec1f 0680 dd53 0300 1f3d 0200 7fbd 0900
000002f0: c38e 0200 edb2 0580 1501 0380 b6fe 0280
00000300: 389e 0380 3079 0600 25a8 0680 de17 0380
00000310: aa2e 0480 7d58 0380 c153 0380 5726 0100
00000320: 6e10 1280 8406 7380 fbdd 0400 d22a 0480
00000330: 8d9e 0600 6cbf 0980 d904 0180 d4d3 0280
00000340: a013 0180 dc69 0400 e8ca 0180 d66e 0580
00000350: 658e 0500 ab7b 0200 6f3e 0180 2a88 0480
00000360: 667a 0300 456a 0280 e8ed 0680 7c3e 0380
00000370: 373b 0200 b96a 0200 89bf 0600 6c46 0400
00000380: 4a74 0180 0b7a 0300 a203 0380 907c 0680
00000390: 7c54 0580 b26a 0300 7b0e 0080 893b 0700
000003a0: ef6c 5d80 d363 0600 57d2 0300 2ea4 0200
000003b0: 9c5b 0780 9251 0180 5b06 0200 8546 0100
000003c0: 7ce8 0000 0fa1 0500 e0af 2b30 aa6d e5b3
000003d0: ad70 0200 50f5 0f80 a721 0100 9e16 0780
000003e0: 5ff3 0280 1bf8 0180 b684 0300 7bf7 0200
000003f0: 7c1c 0280 39d5 0080 0562 0180 3c0e 0280
-4.30235e-40 -3.19793e-40 1.4299606e-08 6.043473e-06 -4.426716e-39 5.594103e-39 1.8798593e-29 1.4672899e-29
4.6092994e-38 6.3854256e-38 -1.4955267e-30 -3.6452094e-31 4.7186e-32 1.121924e-32 -3.445569e-27 2.7122373e-27
-2.673238e-31 -6.162956e-32 1.0741941e-37 8.8940053e-13 8.014927e-09 -1.6364613e-22 -9.23215e-31 -6.95396e-32
-5.269128e-32 -6.1235415e-32 -6.33641e-31 -4.85809e-32 -1.2925401e-27 6.8614976e-28 -4.28405e-40 5.22522e-40
4.8568508e-30 3.7289295e-30 8.885628e-35 -5.9432517e-34 -4.327939e-31 -9.0900226e-32 1.0532789e-36 2.8684042e-35
-3.908485e-38 -6.994041e-17 1.8432173e-30 1.2084568e-30 -1.7385136e-30 -2.7758631e-31 3.2047926e-30 2.2823731e-30
1.4033967e-29 1.3176945e-29 -3.8265602e-38 1.0154593e-37 -1.6476306e-32 1.6784472e-32 -1.1716893e-30 -3.2292433e-31
-5.442659e-13 9.375436e-10 -4.5545013e-31 -5.7205374e-32 1.7484727e-29 1.5275065e-29 1.6196379e-29 1.49418e-29
8.82208e-40 4.074794e-39 1.888156e-39 5.18368e-40 2.191463e-39 3.99687e-39 -2.7971105e-36 2.5830351e-36
-1.5824086e-38 2.93586e-40 9.936258e-38 8.534151e-37 -1.9363839e-38 -1.0326782e-38 1.10963335e-13 -5.8756435e-15
-7.52166e-39 -1.4275997e-38 -5.683868e-39 -2.371199e-39 -6.1808e-40 5.97099e-40 -1.0878911e-37 -6.4047613e-38
3.4406146e-38 -6.969483e-39 -2.0377247e-37 1.8575083e-37 -6.335596e-34 -1.2559755e-31 -1.04386e-40 -1.51302e-40
4.1175966e-36 2.6039377e-36 -3.76911e-40 2.12155e-40 -2.3110927e-37 -1.0294639e-36 6.64902e-40 3.64813e-40
-3.1035673e-38 4.42005e-40 1.291709e-36 -2.6571596e-37 -3.3725499e-38 1.07231215e-36 3.2793193e-36 7.875269e-37
1.4242233e-36 -5.6093345e-37 1.5759329e-13 -9.161042e-06 6.6142e-40 -9.957127e-39 1.0371703e-37 -1.720847e-37
6.8527e-40 3.432928e-39 -1.5530297e-37 1.3414321e-37 8.735453e-36 1.0342793e-36 9.489401e-36 7.836374e-37
-5.41998e-40 4.9678e-40 -3.45871e-40 1.422314e-39 -2.27326e-40 -5.61712e-40 4.15901e-40 6.6106e-41
-3.680062e-39 -2.881917e-39 2.61038e-40 -4.79196e-40 -6.67953e-40 4.2828e-41 -1.63795e-40 8.0286e-41
8.2347e-41 -3.96492e-40 5.18786e-40 1.633866e-39 2.74521e-40 2.72831e-40 -4.6518e-41 2.90583e-40
4.10894e-40 1.833e-41 4.05033e-40 3.8366e-41 -2.976e-42 -4.08163e-40 -1.63604e-40 1.558977e-39
-9.2982e-41 7.04479e-40 -6.24665e-40 5.04466e-40 3.33352e-40 -5.70998e-40 -3.2077e-41 -1.52992e-40
-4.89115e-40 -3.598701e-39 -5.2896e-40 3.88174e-40 2.7065e-41 -3.47469e-40 3.51647e-40 7.7419e-41
-4.74498e-40 4.33246e-40 4.122788e-06 6.503551e-10 3.89586e-40 5.46506e-40 5.20148e-40 5.29504e-40
-5.62464e-40 3.05591e-40 2.05597e-40 8.94498e-40 2.34884e-40 -5.23364e-40 -2.75895e-40 -2.75044e-40
-3.32265e-40 5.94487e-40 -6.11332e-40 -2.84068e-40 -3.84082e-40 -3.0725e-40 -3.05552e-40 1.05589e-40
-1.658933e-39 -1.056342e-38 4.46974e-40 -3.82703e-40 6.0789e-40 -8.95189e-40 -9.3575e-41 -2.5966e-40
-9.8876e-41 4.05317e-40 -1.64625e-40 -4.98938e-40 5.10259e-40 2.28035e-40 -1.14232e-40 -4.16188e-40
3.19415e-40 -2.21793e-40 -6.36358e-40 -2.97922e-40 2.04913e-40 2.21956e-40 6.19723e-40 3.92605e-40
-1.33552e-40 3.19287e-40 -2.7681e-40 -5.95698e-40 -4.89485e-40 3.13782e-40 -5.195e-42 6.64206e-40
-8.579779e-39 5.86823e-40 3.50962e-40 2.42568e-40 -6.75712e-40 -1.21097e-40 1.85951e-40 1.17133e-40
8.34e-41 5.16954e-40 6.245937e-10 -1.0683591e-07 2.24091e-40 -1.465534e-39 1.03908e-40 -6.50962e-40
-2.70976e-40 -1.80839e-40 3.23114e-40 2.7245e-40 -1.93889e-40 -7.649e-41 -1.26998e-40 -1.88777e-40

C1_3.bias f4 [1, 64, 1]
00000000: 2934 cc38 68ad 020c 4003 e019 55ac 359c
00000010: 4ac0 8d1c 8117 db1c f884 f339 bbfa 5418
00000020: 019a f539 06b0 c61c 6806 fd28 a279 182a
00000030: e320 2536 2c58 c32a f639 a91a 71a8 b319
00000040: 3438 4733 384d a824 a7b0 5633 63ea 039a
00000050: 103a 081c c679 4e1d ffcc 6539 a8d7 a032
00000060: 18ca d528 4c8e a615 747c e339 cca2 ce15
00000070: eeb3 d132 8599 7c14 2b68 b713 5228 e9a5
00000080: 3782 a81c fbd3 281b c786 b318 13b6 8638
00000090: b12f 9d2a ca05 64a8 ad60 fc2c 6614 ac2c
000000a0: a4ee 7b1c 4b17 c91b c153 df39 aedd 8339
000000b0: 5d52 282e 9891 271a 62b4 c627 ac87 cf27
000000c0: 55fe f739 32b8 0433 3c63 0a3a 30be e71c
000000d0: 887b 97a5 5bbf ed2e 71ef 7a2d 4d32 c039
000000e0: faa6 ec39 9fbb 8a2f a78c 2c39 51ac 821d
000000f0: 521d c51c f025 bd39 3acc d51c 40f6 193a
9.7371936e-05 1.0067018e-31 2.316237e-23 -6.011061e-22 9.380303e-22 1.449828e-21 0.0004644764 2.7526944e-24
0.00046844783 1.3148042e-21 2.809142e-14 1.3542512e-13 2.4606059e-06 3.470014e-13 6.99904e-23 1.8576199e-23
4.6384415e-08 7.29892e-17 4.9986422e-08 -2.72795e-23 4.507367e-22 2.7326828e-21 0.00021915509 1.872452e-08
2.3735395e-14 6.727137e-26 0.0004338954 8.3459586e-26 2.4412625e-08 1.2753025e-26 4.6298412e-27 -4.044638e-16
1.1150967e-21 1.3965129e-22 4.6406506e-24 6.423532e-05 2.7921895e-13 -1.2657798e-14 7.173004e-12 4.8907987e-12
8.335737e-22 3.3267713e-22 0.00042596276 0.0002515143 3.827193e-11 3.46524e-23 5.515161e-15 5.7601137e-15
0.00047301003 3.090117e-08 0.00052790693 1.533546e-21 -2.6278033e-16 1.0811504e-10 1.4264021e-11 0.0003665857
0.00045137835 2.5235367e-10 0.00016455595 3.4588884e-21 1.3043946e-21 0.00036077155 1.4147949e-21 0.0005873181
